mnist-logistic.pth (torch, 32423 bytes, 2 tensors)

linear.weight f4 [10, 784]
000000 80 93 ca b9 5c 69 aa bc ff db 04 3d 4e cb da 3c
       -0.00038638338 -0.020802192 0.032436367 0.026708271
000010 46 5b e1 3c 07 52 9d bc e6 b5 29 bc d4 12 0c 3c
       0.027509343 -0.019204153 -0.010358309 0.008549411
000020 0a 4d ab bc f0 e3 74 3b 26 90 46 bc 5a fe b9 bc
       -0.020910759 0.0037367307 -0.012119329 -0.022704292
000030 b1 d0 4d 3c 9b 60 06 bd ea e6 18 bc 38 b4 bf bb
       0.012561963 -0.032806974 -0.009332398 -0.005850341
000040 20 09 b6 bc 38 59 ad 3b f0 50 60 bb ea 54 db bc
       -0.022221148 0.0052901767 -0.003422793 -0.026773889
000050 28 3a cf 3c 5c a0 4f bc 4e f3 30 bc 3e 58 88 3c
       0.025296286 -0.01267251 -0.010800196 0.01664364
000060 dd 74 11 bd 12 37 cb 3c 0e 1f c0 bc f4 a3 52 3c
       -0.03551184 0.024806533 -0.023452308 0.012856472
000070 c0 c1 ca 3b 00 4d be bc 80 c3 ab 39 78 30 1b 3c
       0.0061876476 -0.023230076 0.0003276132 0.009472005
000080 78 e0 bc 3b 90 37 d3 3a 01 5b 41 bc 42 43 f8 ba
       0.0057640634 0.0016114581 -0.011801482 -0.0018940943
000090 d2 b7 b3 bc c4 2f 11 3d e6 f2 58 bc 31 4f c6 bc
       -0.021938238 0.035445943 -0.013241505 -0.024207683
0000a0 87 17 e0 3c 15 e4 b4 3c 9f 2e 85 3c 12 64 0d bd
       0.027354969 0.022081414 0.016257582 -0.034519263
0000b0 9b 83 f2 bc 88 7b f0 3a 3c 54 01 3c 3e 44 c0 3c
       -0.02960377 0.0018347362 0.007893618 0.02347004
0000c0 48 2a c6 3c 47 db 3f 3c ef c4 c7 3b 20 3a c3 bc
       0.024190083 0.011709995 0.0060964744 -0.023831427
0000d0 40 fa 13 bc 78 e0 91 3b 0d e3 0d bd 30 a3 4f bb
       -0.009031832 0.0044518076 -0.03464036 -0.003168296
0000e0 ec 4a ad 3c 58 f0 88 3c d0 2f 6a bc 24 17 cb bc
       0.02115389 0.016716167 -0.014293626 -0.024791308
0000f0 2c 3c 10 bc 60 bd de 3c f8 2c d7 3c b0 a6 8b 3c
       -0.008803409 0.02718991 0.02626656 0.017047256
000100 7d ef d8 bc 05 bd 94 3c a0 39 07 3d 0d 16 a3 3c
       -0.026481384 0.018156538 0.03301394 0.019907976
000110 82 d0 cd bc c2 69 6b 3c 40 5b 1a bc 99 84 20 bd
       -0.025123838 0.014368476 -0.00942117 -0.039188955
000120 ee 73 b7 3b 3a dc fc bc 40 79 53 bc aa 6e a4 bc
       0.0055985367 -0.030866731 -0.012907326 -0.0200723
000130 75 31 0a bc c6 dd 70 3c 7e b3 dd 3c 30 e5 5d b9
       -0.008434643 0.014701312 0.027063128 -0.00021161581
000140 a2 0a 08 bd a5 09 4f 3c c8 5c a9 bb e6 43 7b bc
       -0.033213265 0.012636577 -0.005168531 -0.0153360125
000150 60 63 43 3b 9c a8 65 bc 9e cb ec 3c 48 5c 08 bd
       0.002981387 -0.01401725 0.028905686 -0.03329113
000160 ef d9 e0 3c 71 6a 03 3d 2d db 44 bc 42 2a d2 bc
       0.027447669 0.032083932 -0.012015146 -0.025654916
000170 70 44 5c bb 02 79 fd bc fb 15 a3 3c 59 0a e4 bb
       -0.0033610128 -0.03094149 0.019907942 -0.0069592413
000180 21 38 8b bb 48 11 08 bd a8 bd f3 3b 7f df 36 bd
       -0.0042486344 -0.033219606 0.0074383803 -0.044646736
000190 ff e1 e0 39 f0 e1 0a bc da 45 08 bd fe 14 3a bc
       0.0004289299 -0.008476719 -0.03326974 -0.011357544
0001a0 6c d1 05 bd a5 3e 9f 3c 51 c6 aa bb 6b 17 d7 bc
       -0.032670423 0.01943905 -0.0052116294 -0.026256284
0001b0 f2 d3 97 bc fb 28 70 bc 83 d1 bb 3c cc de 85 bc
       -0.01853368 -0.014658208 0.022927051 -0.01634159
0001c0 76 d8 d7 3c 13 f1 98 3a 1c 68 56 bc 52 7c a2 bb
       0.026348334 0.0011668525 -0.013086345 -0.004958668
0001d0 7c 75 a6 3b cc 66 c2 bc c8 bb f5 bc 26 ee 2d 3c
       0.005079923 -0.023730658 -0.029996768 0.010615861
0001e0 86 a2 95 bc 4e a8 8e 3c 37 1d 25 bc 90 6c 2a bd
       -0.018265974 0.017414238 -0.010077766 -0.04160744
0001f0 70 6d 5b ba bd cd e5 3b ef ab 52 bc d2 3b b2 bc
       -0.00083704945 0.0070130513 -0.012858375 -0.02175704
000200 63 51 d1 3c 18 48 fa 3b bc 98 b7 3b 74 de d0 bc
       0.025551504 0.007637989 0.005602924 -0.025496699
000210 61 5e d2 bc 2f 57 3e 3a d0 d8 a2 bc cc e8 df bc
       -0.025679769 0.0007260916 -0.019878775 -0.027332686
000220 cf ac 02 3d 3c 7a ba 3c 11 bb e9 3c b3 f9 18 bc
       0.031903084 0.022763364 0.028531583 -0.009336877
000230 9c 9e 0a 3c 56 2d 09 bd ed 56 68 3c d7 8f 04 3d
       0.008460667 -0.0334905 0.014180881 0.03236374
000240 5a d7 db bc a5 ba 00 3d 5f 02 4f 3a 82 a5 e7 bc
       -0.026836086 0.031427998 0.00078967767 -0.028277162
000250 e4 23 07 bd 50 e4 41 bc bd 8d ed bb 81 a1 96 bb
       -0.032993212 -0.011834219 -0.0072495625 -0.0045968895
000260 11 a5 29 3c 3c dd a4 bc 34 d8 b8 3c e8 89 1e 3d
       0.010354296 -0.020125024 0.022564031 0.038705736
000270 ff 4c 92 3d d5 a3 91 3c 82 fa 5b 3d 3f fc 97 bb
       0.07143592 0.017778317 0.0537057 -0.0046382244
000280 ca 18 ab 3c b8 41 95 bc e7 4f 2f bc df 27 7d bc
       0.020885844 -0.018219814 -0.010700203 -0.015451401
000290 aa 92 6f bb cc 96 c2 38 45 10 04 3d 41 ab a6 bc
       -0.0036555924 9.278729e-05 0.03224208 -0.020345332
0002a0 90 16 05 3c dc 10 2b bc 05 82 14 3c 29 3d a9 bc
       0.008123055 -0.010441031 0.009064202 -0.020659046
0002b0 80 dd a8 bc 00 c2 91 39 dd f7 00 3c 41 21 20 bd
       -0.020613432 0.00027801096 0.007871595 -0.039094213
0002c0 0a 2c cc bc 4b 44 f3 3b e9 18 07 bc d0 dc b2 3b
       -0.024923343 0.0074239126 -0.008245685 0.005458452
0002d0 4c 85 bf bc b8 7f 2b 3d b1 bf db 3c d4 d6 78 3d
       -0.02337899 0.04186985 0.026824804 0.06075175
0002e0 af dc 2e 3d 38 98 4f 3d 9c 44 1a 3d 5e 0a 43 3d
       0.04269093 0.050682276 0.037663087 0.04761731
0002f0 48 1b 28 3d bc 5a 9f 3c a2 cd b2 3c c2 a1 9b bc
       0.041041642 0.019452445 0.021826569 -0.01899803
000300 39 a9 c7 bc fb 53 16 3c 72 a2 13 bd 26 7b 91 3c
       -0.024372684 0.009175296 -0.03604359 0.017758917
000310 29 ef b5 bc de 7a 47 bc 7b 18 b0 bc 79 27 82 3b
       -0.022208767 -0.01217529 -0.021496048 0.0039719907
000320 fb 9f ae 3c ba cc 25 bd 5a 54 35 3c 52 3e 98 bc
       0.021316519 -0.040478446 0.011067474 -0.018584404
000330 6a d8 8a bc c6 4b 15 ba 20 80 22 bc 45 f8 f2 3c
       -0.016948897 -0.000569519 -0.009918243 0.0296594
000340 dc f0 38 3d ff 75 b3 bb 5e 5e 39 3d b0 b0 a9 3c
       0.045151576 -0.0054767127 0.04525601 0.020714134
000350 f2 c8 84 3c be c8 b3 3d 17 cc 82 3d 86 dd a0 3d
       0.0162091 0.08778523 0.06386583 0.07854752
000360 36 cd 3d 3d c7 81 10 3d 03 32 0c 3d 47 3e 61 bc
       0.046338283 0.035280015 0.034227382 -0.013747758
000370 e2 58 83 bc b3 b9 09 3b 50 a3 94 bc 2b 2a e3 3c
       -0.016033594 0.0021015226 -0.01814428 0.027730068
000380 25 65 ab 3c ef 15 59 3a 46 07 96 3c 62 ab e5 bb
       0.020922253 0.00082811614 0.018314015 -0.007008956
000390 dd bb 5b 3b ce 36 38 bd 51 80 8e bc ea ef 12 bd
       0.0033528723 -0.04497414 -0.01739517 -0.03587333
0003a0 bc 34 93 bc 1f 97 f8 bc 66 e5 ab bc 27 4b 08 3d
       -0.017969482 -0.030345498 -0.02098341 0.033274796
0003b0 36 aa 9f 3b 5e 8f a8 3c cf 13 00 3b c1 f1 76 3d
       0.0048725856 0.020576175 0.0019543057 0.06028915
0003c0 a5 b0 8f 3c 5d 86 55 3d 14 60 98 3d be c7 8a 3d
       0.017540285 0.052130092 0.074402004 0.06776379
0003d0 e0 f7 91 3d 85 fa 22 3d 5e b8 7b ba 51 e7 c0 bc
       0.071273565 0.039789695 -0.0009602363 -0.0235478
0003e0 37 78 af bc 15 02 1e bd 48 5f 25 3c f2 dc 40 bc
       -0.021419628 -0.038576204 0.010093518 -0.0117714275
0003f0 3d 86 a3 bc e0 a9 10 bb 97 03 89 3c 16 8e 0e 3b
       -0.01996147 -0.002207391 0.016725345 0.002175217

linear.bias f4 [10]
000000 0d f0 9a bd 0c ac d7 3d 87 ee 2f bd 31 91 10 bd
       -0.07565317 0.10530862 -0.042952087 -0.035294715
000010 6a 5c 08 bc 9c 5e 83 3d f1 62 6d 3c 35 51 71 3d
       -0.0083228145 0.0641453 0.0144889215 0.058915336
000020 b2 b4 6d bd d3 5a b4 3c
       -0.058033653 0.022015965
